models/SineApproximator.pt (torch, 182552 bytes, 31 tensors)

hidden.weight f4 [100, 1]
000000 bd c0 9b 3f 0a ec f4 be db 41 a1 3f b7 a1 13 3f
       1.2168194 -0.47836334 1.2598222 0.5766863
000010 d4 d1 6b bf 6c 04 7b 3f f8 c3 b2 3f 36 d2 73 bf
       -0.9211705 0.9805362 1.3966055 -0.9524263
000020 a3 db f7 3f ed b2 85 3f dd 17 0c c0 09 69 11 40
       1.9363903 1.0445229 -2.1889565 2.2720358
000030 8c 16 6b 3e 76 4f 83 bf b1 55 e1 3f 7f cc ad 3f
       0.2295782 -1.0258625 1.7604276 1.3578032
000040 31 d6 05 c0 bd d1 fc 3f d0 36 b0 bf ef 22 15 40
       -2.0911982 1.9751507 -1.3766727 2.3302572
000050 ad dd 99 3e a3 9f 87 3f af bd f6 3f d9 a0 02 40
       0.30051938 1.0595592 1.9276637 2.0410674
000060 63 af 52 bf 24 3e 24 bf e5 33 4d 3f 7f bd 64 3f
       -0.8229887 -0.6415732 0.8015731 0.8935165
000070 c7 e5 02 be d6 76 8a 3f 4f 18 d1 3f 4b 3e cd bf
       -0.12782966 1.0817516 1.6335543 -1.6034635
000080 48 4c ac 3f e1 53 1b 40 0e 53 86 3f 89 f7 46 3e
       1.3460779 2.4269946 1.0494096 0.19430365
000090 23 23 dd 3f 4d 6c 77 3c d4 c1 d1 bf 0e 0f 07 c0
       1.7276348 0.0151015045 -1.6387277 -2.1102939
0000a0 59 35 0b c0 42 d3 ec bf ab 80 e0 be 97 78 8f 3f
       -2.175131 -1.8501971 -0.43848166 1.1208676
0000b0 b7 99 17 c0 1f d9 67 be de 2e ca 3f 73 b1 e8 3f
       -2.368757 -0.22641419 1.5795553 1.8179153
0000c0 09 5e 9b bd 8b 6c 97 be 9d c1 f3 bf e5 a3 04 40
       -0.07586295 -0.29575 -1.9043461 2.0725033
0000d0 c2 f1 85 be 8e 0b ef bf cf 52 0b 40 f3 1e 1b c0
       -0.2616101 -1.8675401 2.1769292 -2.423764
0000e0 89 fe cf 3f 63 96 83 bf 25 c2 b5 bf e2 85 02 40
       1.6249553 -1.0280269 -1.4199873 2.0394216
0000f0 66 ac 7f 3f be 46 b6 3f ea 0c 8f 3f 52 18 c2 bf
       0.99872434 1.4240339 1.1175816 -1.5163672
000100 96 dc d3 3f 3a 44 f9 bf ca 9b 27 bf b9 d3 1a bf
       1.6551692 -1.9473946 -0.6547209 -0.60479313
000110 9a 1b df 3f c3 bc ea 3f 36 8a 0d bf 9d 18 ee 3f
       1.7430298 1.8338856 -0.5528902 1.8601261
000120 ac e5 7c bf 60 53 0d 40 ae 46 f6 3f a5 f8 66 bf
       -0.9878795 2.2082138 1.924032 -0.9022315
000130 fc 19 83 bf ad 3d 9f 3f 7e 87 6f 3f d2 41 96 bf
       -1.0242305 1.2440697 0.9356612 -1.1738837
000140 84 c2 c3 bf 95 4d 3d 3f 6c 32 45 bc 9c 25 ff be
       -1.5293736 0.73946506 -0.012035947 -0.4983338
000150 85 52 49 bf 46 62 34 bd 15 11 ad bf 6a a3 06 40
       -0.7864154 -0.044039033 -1.3520838 2.103724
000160 22 d7 e2 3f 52 a7 32 be d8 45 d0 3f 2f 01 82 3d
       1.7721903 -0.1744664 1.6271315 0.06347882
000170 87 1d 91 be b5 c3 c8 bf 5f 91 8d 3f 65 d5 3a bf
       -0.2834284 -1.5684725 1.1059989 -0.72981864
000180 ed bd e5 3f 82 af fe 3f 37 d1 73 bf 75 c7 48 3e
       1.7948586 1.9897311 -0.9524111 0.19607337

hidden.bias f4 [100]
000000 0f 6d 05 39 5a 36 c1 ba 62 2e c7 39 9d 7b 23 ba
       0.00012724496 -0.001474093 0.00037990796 -0.00062363764
000010 e7 61 10 39 16 3c f5 38 26 6b fe 38 fc 2e a4 ba
       0.00013769382 0.00011693702 0.00012131622 -0.001252621
000020 5c d3 86 39 13 b8 32 3a 0d 92 b5 b9 9a 0b cf 39
       0.00025715947 0.00068175903 -0.00034631827 0.0003949076
000030 95 2e 33 3b 2d 25 26 b9 a4 5b 90 b9 ca 0d 2d b8
       0.0027340997 -0.00015844843 -0.00027534098 -4.1259256e-05
000040 94 c8 3a 38 4f 41 fb b9 c2 52 9e b9 53 d9 ff 38
       4.453266e-05 -0.0004792311 -0.00030197768 0.00012199827
000050 e6 56 96 ba 77 56 bf 39 b6 2e ca b8 5a 20 a6 39
       -0.001146999 0.0003649478 -9.640811e-05 0.0003168609
000060 b2 39 80 ba c3 ee f7 38 ae 79 89 b8 ff c5 25 3a
       -0.000978282 0.00011822351 -6.555334e-05 0.0006323754
000070 83 2e 20 3b e8 bf d9 b6 ca b2 4c b9 6a eb 95 39
       0.0024441786 -6.489445e-06 -0.0001952156 0.00028594892
000080 98 a5 06 ba 08 99 2e ba 09 66 5b ba 5d bd 44 bb
       -0.000513637 -0.00066603767 -0.00083693914 -0.0030020096
000090 30 bf 76 37 67 3b 4e 3b b8 d4 63 b9 6b 6c 8c b9
       1.4707257e-05 0.0031468512 -0.00021727651 -0.00026783659
0000a0 05 01 3f 38 d9 68 74 b9 3b 76 b4 38 9b 39 9e b9
       4.5538898e-05 -0.00023308712 8.605091e-05 -0.00030179028
0000b0 8a b6 b0 38 f6 fb 65 b9 80 fd 06 3a 2f 4f a5 b8
       8.4263345e-05 -0.00021933005 0.0005149469 -7.882562e-05
0000c0 85 91 b6 bb c7 88 05 bb 8e ee ef 38 ea f0 a4 b8
       -0.0055715465 -0.0020375715 0.00011440842 -7.865003e-05
0000d0 49 8f f2 ba 3d ce 12 3a c1 65 f4 b9 d0 ec 4c 39
       -0.0018505837 0.000560019 -0.0004661512 0.00019543176
0000e0 40 ea bd b9 77 99 d3 39 04 7a af 39 11 a0 48 39
       -0.0003622342 0.00040359396 0.0003346951 0.00019133116
0000f0 6a 47 9b b9 32 d3 f3 b7 61 13 bd 39 5b 98 bc b9
       -0.0002961711 -2.9066203e-05 0.00036063328 -0.00035971668
000100 46 a9 e8 39 1c 5d 82 37 2d fc a3 3a 24 82 1d 3a
       0.00044376607 1.5540565e-05 0.0012511067 0.0006008467
000110 85 72 33 39 ef 34 6f b8 f2 2e d4 38 c6 e4 05 b7
       0.00017113432 -5.703134e-05 0.00010117692 -7.980683e-06
000120 ac 16 b9 38 ae c7 39 39 8d f3 84 39 a4 6f bc 35
       8.8257104e-05 0.00017717361 0.0002535846 1.4039583e-06
000130 9a 21 59 3a 18 41 6a 38 98 5f 9f 38 c7 8b dd 39
       0.00082829 5.585057e-05 7.5995165e-05 0.00042256547
000140 e8 bb 81 b9 22 7b 0b 3a a6 b3 97 3b 2a ce 3d b9
       -0.00024744798 0.00053207774 0.00462957 -0.00018101247
000150 21 b8 e2 39 3e 00 9f b9 02 fe e1 39 5a 67 8d 39
       0.00043243266 -0.00030327024 0.00043104595 0.0002697062
000160 9b 66 07 ba e9 38 0e bb a7 63 97 b7 1f 25 d8 ba
       -0.0005165131 -0.0021701402 -1.8047007e-05 -0.0016490555
000170 5a 37 15 3a 30 f8 10 39 bc 20 15 3a 5b 2a 75 b9
       0.0005692147 0.00013825367 0.0005688777 -0.000233808
000180 43 c3 11 3a 95 16 1d b9 f4 6f af 3a ef 92 f4 ba
       0.00055604073 -0.00014981099 0.0013384805 -0.0018659512

hidden2.weight f4 [100, 100]
000000 30 c5 f8 3d 1f fd 61 be f0 bc b6 bd ee 46 59 3e
       0.121469855 -0.22069214 -0.08922756 0.21218464
000010 c3 f6 2f 3c 5a a0 1b 3e bc 1d 06 3d a0 23 3d be
       0.010739985 0.15197888 0.0327432 -0.18470621
000020 41 18 32 3e 63 23 62 3e 86 a2 1c be cc e0 b8 bd
       0.17392065 0.22083811 -0.15296373 -0.090272516
000030 67 91 f4 3d d6 1b 24 3d 9a 13 70 be aa 05 d8 3d
       0.11941796 0.04006561 -0.23444977 0.10547955
000040 77 86 66 3e 72 92 a5 3d f7 a5 db 3d be 02 66 3e
       0.22512232 0.08084573 0.10725015 0.22461984
000050 81 0b 43 bd 66 12 c3 3c 8f 70 34 be 90 45 04 be
       -0.047618393 0.023812484 -0.17621063 -0.12917161
000060 70 87 09 be 28 ff cc 3d 1e 41 26 be 6e 4d 73 be
       -0.13430572 0.10009605 -0.16235778 -0.23760006
000070 ab cf f5 3c 57 f9 4c be 5e e8 32 3e 53 ba 9d bd
       0.03000625 -0.2001699 0.17471454 -0.07701554
000080 16 8d ad 3d 15 8d 17 3d 27 5e a9 bc fd 9a bc 3b
       0.08474176 0.03699978 -0.020674778 0.0057557807
000090 6b 71 70 be 1b 33 07 be 5a c6 87 bc 8c bb 1a be
       -0.23480766 -0.13203089 -0.016574074 -0.15110606
0000a0 40 58 73 bc f3 52 f6 bd 64 6b be bc 83 c9 a3 bc
       -0.014852583 -0.1202754 -0.023244567 -0.01999355
0000b0 82 21 21 be 7b 77 8d 3b 2f bc b6 bd 0a 42 33 be
       -0.15735438 0.0043172217 -0.08922612 -0.1750566
0000c0 7e fa 9a bd e6 ef 21 be 1e df 57 3e 6d a0 24 3e
       -0.07567309 -0.1581417 0.21081206 0.16076823
0000d0 30 cd 4f 3e 64 aa a6 3d 79 ca 08 be cb 55 3e be
       0.20293117 0.08137968 -0.13358487 -0.18587415
0000e0 e9 40 9e bd 65 3c 20 bd d1 12 1a be 68 5a 82 3d
       -0.077272244 -0.039120097 -0.1504624 0.063649
0000f0 ef e9 0f 3d 5c 36 f3 bd db e4 87 bd 5c 78 0b be
       0.035135206 -0.118756026 -0.066354476 -0.13620132
000100 7f 13 aa bd 05 d3 97 bd 96 ef 2a 3e a9 45 91 bd
       -0.083045 -0.07413296 0.16692957 -0.07093365
000110 31 3e 87 bd 8e b4 71 3e 02 7b db 3d 05 41 e8 bd
       -0.06603659 0.23604032 0.10716821 -0.113405265
000120 02 87 5e 3d ae ea 61 3e e3 ef d3 bd d2 eb 2c 3e
       0.054327972 0.2206218 -0.10348489 0.16886833
000130 49 32 7a be 1b d0 30 be a9 28 53 3e c6 27 29 3c
       -0.24433245 -0.17266886 0.2062098 0.010324424
000140 99 56 1c be 2c 57 3e be 31 64 15 3e 10 da 0a 3d
       -0.1526741 -0.18587941 0.14589001 0.033899367
000150 b6 0c 38 3e 55 9c 8e 3d 8b 0d 59 be 98 7e 1a 3e
       0.17973599 0.06963412 -0.21196572 0.15087354
000160 b1 91 d0 bd 83 5a 2a be d8 6f a6 bd 83 5b 88 3c
       -0.101840384 -0.1663609 -0.08126801 0.016645199
000170 3e 26 2b bd 8c aa f8 bc 30 b5 30 3e 4f 6d b6 bd
       -0.041784517 -0.03035476 0.17256618 -0.08907568
000180 d8 2d 3a bb 9d 75 de 3d 4a 5c 2a be 39 6a 36 bd
       -0.0028408673 0.10862277 -0.16636768 -0.044534896
000190 7e 62 4b 3d e9 51 31 3d 17 fd 2a be 86 a1 d4 bd
       0.049654476 0.043291006 -0.16698109 -0.10382371
0001a0 8a 62 5d 3a 4c 03 4a 3e 96 dc 22 3e e6 fe 58 be
       0.00084451644 0.1972782 0.1590446 -0.21190986
0001b0 33 e5 f8 bd c8 29 60 3d 91 e2 6a be c6 62 2a 3e
       -0.12153091 0.054727346 -0.2293799 0.16639242
0001c0 8a 69 04 be c7 30 37 be e1 f8 77 3e 48 26 0d 3e
       -0.12930885 -0.17889701 0.24216034 0.13784134
0001d0 0b 21 20 3d 3d 61 fc bc 81 68 31 bd 42 62 c2 bd
       0.039094012 -0.030808086 -0.043312553 -0.094913974
0001e0 a7 43 9f bd c5 1d 19 3d 4c af 22 3e 92 45 57 3e
       -0.077765755 0.037381906 0.15887183 0.21022633
0001f0 80 6c 84 bd 2d 8a 00 3e d1 3a bb 3c 11 ca 0e be
       -0.06466007 0.1255271 0.022855194 -0.1394427
000200 19 de c8 3d 25 a0 6f bd 3e e6 4d bd 11 06 93 3d
       0.09807987 -0.058502335 -0.050268404 0.071788915
000210 84 aa 49 be 2d 3c 1d be da 21 15 3d 9f 8f 37 3e
       -0.19693953 -0.15354986 0.036409236 0.17925881
000220 2e 48 b3 3d de 3c 23 be 07 da 44 bd 63 26 0f 3d
       0.087540016 -0.15941188 -0.04805949 0.034948718
000230 ac 5a 12 3e 97 a9 78 3e 59 3a 33 be 5d 6e 50 be
       0.14292401 0.24283443 -0.17502727 -0.203546
000240 38 b5 3f bc aa 31 f3 3d c4 ed 3d be 2b e9 f9 3c
       -0.011700921 0.11874707 -0.18547732 0.030506691
000250 e5 77 a1 bd 5d 07 2d 3e 62 2a 4f 3e cf 26 21 3e
       -0.07884196 0.1689734 0.20231012 0.1573746
000260 4e 57 55 be 01 c5 03 3c 0a 76 08 3c 34 20 a2 3d
       -0.20834085 0.008042575 0.008328924 0.079162985
000270 19 c7 1a be 83 2c 24 3e bf 4a 14 be e3 29 06 be
       -0.15115012 0.16032605 -0.14481638 -0.13101916
000280 c7 9c 12 3e 3f 3c db bd 80 c9 62 be 9f 41 35 3e
       0.14317618 -0.107048504 -0.22147179 0.17700814
000290 ed 6e ce 3d f3 d0 4e 3e 7b 1c e8 3d f0 2d 36 3e
       0.10079751 0.20196895 0.11333557 0.17790961
0002a0 92 2b 6a 3c 4a a7 84 bd 21 e8 24 3e c2 e6 1d be
       0.014292615 -0.0647722 0.16104175 -0.15420058
0002b0 bc 2d 6c 3d 3d 57 1b 3d a9 f5 2c 3e 67 9c 24 3e
       0.057660803 0.037924994 0.16890587 0.16075288
0002c0 00 ef 2f be 6b fb 2f be 01 b4 d3 bd e2 e7 a9 bd
       -0.17181015 -0.17185752 -0.103370674 -0.08296181
0002d0 db d8 fb bd ef ce 95 bd 77 19 5b bd d8 96 55 3e
       -0.12297221 -0.0731486 -0.053491082 0.20858324
0002e0 f3 a5 86 3d e4 95 44 be 6a 66 44 3e c5 8e 8b bd
       0.06574621 -0.19197804 0.19179693 -0.068143405
0002f0 89 ae 50 3e 41 74 9d bc c9 4b 21 3e 41 ff 0c be
       0.2037908 -0.019220473 0.15751566 -0.13769247
000300 76 31 41 be b1 88 29 3e fd 74 c8 bd e5 3c b0 3d
       -0.18866524 0.1655605 -0.09787939 0.08605365
000310 12 86 22 3e bf a0 05 3e 3d 5b 52 3e 24 4d 39 3d
       0.15871456 0.13049601 0.20542617 0.045239583
000320 ac 95 e9 3d d4 71 37 be 7d 90 f5 3d 6e 6d 41 3e
       0.11405501 -0.17914516 0.119904496 0.188894
000330 a7 75 6d be b1 c0 6f 3e 13 00 44 be bd ee 24 3e
       -0.23189412 0.2341335 -0.19140653 0.16106696
000340 74 c0 11 3e b2 bc 6f be fe da 39 be a9 88 49 3e
       0.14233571 -0.23411825 -0.18149945 0.19681038
000350 70 1e 2f 3e c9 7c 5f 3d 7c c4 b6 bd 48 17 27 3e
       0.17101455 0.054562364 -0.08924195 0.16317475
000360 3c b6 5a bd 76 5e c8 bd 2a 65 ee bd f8 f5 8b bd
       -0.05339645 -0.09783642 -0.11640389 -0.06834024
000370 48 1d df bd 1d 6c 04 3e ea 3d 58 be 89 57 59 be
       -0.10894257 0.12931867 -0.21117368 -0.21224798
000380 4a c1 dc bd c0 7b d4 3d 9a 81 a0 bc a2 74 07 3e
       -0.107790545 0.10375166 -0.019593049 0.13228086
000390 6b 0a 36 bc b9 52 68 bd 3b d9 f9 3d 96 e4 06 be
       -0.011110882 -0.056719515 0.121996365 -0.13173136
0003a0 4a 32 20 3b 1c c1 1a be ce d6 b3 3d b3 1c 01 be
       0.0024444037 -0.15112728 0.08781205 -0.12608604
0003b0 87 38 80 bd 6a ec 85 3d 7e 9a 2c 3e 27 4d d5 3c
       -0.06260782 0.06539233 0.16855809 0.026037766
0003c0 81 1c d4 bd 64 a0 7e bd 7c 06 36 3e a2 c3 9d 3d
       -0.10356999 -0.06216468 0.17775911 0.077033296
0003d0 5a 16 88 bd 14 18 1a 3c a6 cb 17 3e 10 97 46 3e
       -0.06644888 0.009405155 0.1482378 0.19393563
0003e0 53 09 60 be 17 4b 4a bc 69 29 cc 3d de 91 62 bd
       -0.21878557 -0.012347004 0.09968836 -0.05531489
0003f0 4f 92 6e 3e f3 e8 ac bd b4 1a 2f be 03 fe 2d be
       0.23298 -0.08442869 -0.1710003 -0.16991429

hidden2.bias f4 [100]
000000 4b 13 eb b8 75 db 02 b9 7b 8e e4 ba cc df 1f 3a
       -0.00011209267 -0.0001247952 -0.0017437482 0.0006098717
000010 c3 de 92 39 d1 0f c2 39 29 6b cf 39 6f c9 c3 37
       0.0002801326 0.00037014348 0.00039561957 2.3339611e-05
000020 e6 a8 84 39 6b 12 b1 38 95 23 07 b9 f1 3a b0 ba
       0.0002530284 8.443448e-05 -0.00012887859 -0.00134453
000030 92 94 c5 b8 53 0b 1a 3a 55 ce 90 b8 5f 50 16 b9
       -9.4213654e-05 0.0005876321 -6.9048874e-05 -0.00014335055
000040 90 24 ce 39 e2 4d 8f b9 3a ae ed b6 68 67 05 3a
       0.00039318623 -0.00027333113 -7.083433e-06 0.0005088956
000050 fa e5 85 b9 ed 3d 9e b8 e3 20 3f 39 39 40 4c bb
       -0.00025539083 -7.545562e-05 0.0001822743 -0.003116621
000060 3b 72 9d 39 4c 9f 22 39 44 95 5f 37 2b 1e 8a b9
       0.00030030482 0.00015508867 1.3326589e-05 -0.00026343888
000070 46 35 02 3a 7f 05 64 36 c1 c9 52 b6 b7 a5 37 bb
       0.0004967045 3.3977847e-06 -3.1409875e-06 -0.0028022358
000080 d5 b6 9c 38 02 9e 09 ba a0 34 8d b9 e3 f4 7f ba
       7.472715e-05 -0.000524968 -0.00026932824 -0.0009763969
000090 46 30 c8 37 08 cf 21 39 24 0d 83 3b f5 f8 1f 3a
       2.3864337e-05 0.00015431282 0.003999369 0.0006102466
0000a0 86 d7 b4 ba 87 a0 95 38 db ee 83 b9 16 0e 1a 3a
       -0.0013797141 7.134774e-05 -0.00025164228 0.0005876733
0000b0 90 c4 82 39 1c 09 cb b7 12 3d 06 39 86 90 ee b8
       0.00024941983 -2.4203728e-05 0.00012801986 -0.00011375644
0000c0 db 4e 90 39 72 04 26 39 a9 d4 8a b9 a6 72 bb 38
       0.00027524572 0.0001583265 -0.00026479855 8.93821e-05
0000d0 67 c4 3d b9 1b d7 3a b9 d9 a3 46 3a d7 3f 8a ba
       -0.0001809761 -0.00017818475 0.0007577516 -0.001054759
0000e0 df 00 a4 b9 40 d1 03 3a 37 63 07 3a 38 e7 41 39
       -0.00031281167 0.0005028434 0.00051646255 0.0001849205
0000f0 32 65 e6 38 0a fc 01 ba ed 6a a3 b9 2f 4d bd b9
       0.00010986104 -0.0004958516 -0.0003116945 -0.00036106395
000100 4e f3 01 39 c4 8e f1 38 25 d9 a1 38 9a 19 5e 39
       0.00012393037 0.00011518368 7.7175246e-05 0.00021181107
000110 5e 16 0e 3a 4b 9f 0f 3a 43 fe 48 3a 7e 6c 27 b9
       0.0005420203 0.00054787536 0.00076672825 -0.00015966778
000120 f3 d3 c7 3a 9a 76 7f 38 37 a2 31 3b 35 0b 50 3b
       0.0015245661 6.0907194e-05 0.0027104744 0.003174496
000130 d4 0c cc 38 d0 f0 14 b9 6b 42 25 39 32 32 99 b8
       9.7298675e-05 -0.0001420409 0.00015760369 -7.304958e-05
000140 38 0d 37 39 ff 6d 46 37 4b 03 d9 38 8e 98 e2 b9
       0.00017457164 1.182733e-05 0.0001034798 -0.0004321974
000150 0a bf 7c b9 92 e0 07 ba 46 90 2e ba 8e e4 58 bb
       -0.0002410376 -0.0005183305 -0.00066590717 -0.0033095214
000160 59 c7 60 3a 6f 2e a5 39 ee ad 9b b7 99 54 ff 38
       0.0008574627 0.00031505848 -1.8558432e-05 0.00012175105
000170 99 bc 96 b9 12 87 94 37 21 19 01 3a 46 d0 6c 3a
       -0.00028750746 1.7705872e-05 0.0004924704 0.00090337207
000180 de 8f 6f 3a 65 61 e4 39 21 2b e7 39 71 5a 5e b8
       0.00091385643 0.00043560113 0.00044091887 -5.3013155e-05

hidden3.weight f4 [100, 100]
000000 84 9a 93 3c 79 07 56 3e dd 23 e7 3d d4 be 57 bd
       0.018018015 0.20901288 0.11286137 -0.052672222
000010 53 e5 7f 3d d5 90 ae bb b1 ac 07 3e 40 40 00 bd
       0.06247456 -0.005327324 0.1324947 -0.031311274
000020 cf 01 8e bd 0d 89 d1 bd 92 98 84 bb e7 db 1b 3e
       -0.06933939 -0.102312185 -0.004046508 0.15220605
000030 7c 1f 25 be 93 9c 12 be 52 47 29 be 44 69 4c 3e
       -0.16125292 -0.14317541 -0.16531113 0.1996203
000040 e3 3b fc 3d 29 ab c4 3c fd 9d ce bc ff 5d 12 bd
       0.1231611 0.024007397 -0.025221819 -0.035734173
000050 9a 50 6e be b8 57 54 be b9 a3 4b be bf 23 25 3e
       -0.23272935 -0.20736587 -0.19886674 0.16126917
000060 ef ed cf 3d 34 b7 1d 3e 41 34 c5 bd 9a 97 3e be
       0.10152804 0.15401918 -0.09629107 -0.18612519
000070 32 fd 7f 3d 30 a0 5b be dd b5 51 3c 9a 26 a0 bd
       0.062497325 -0.21447825 0.012799707 -0.07819863
000080 db 54 cd bd df 9b 31 bd f2 d8 63 be 52 67 f8 bd
       -0.100259505 -0.04336154 -0.22250727 -0.12129082
000090 3b c5 27 be 47 df e2 bd 5e 79 58 be f5 72 c3 3d
       -0.16383831 -0.11077743 -0.21140048 0.09543411
0000a0 da ad 38 be 90 08 db 3d 18 d5 5d 3e ea b5 2a 3e
       -0.18035069 0.106949925 0.2166332 0.16670957
0000b0 ba 15 70 be 4e 47 7a 3e 38 c3 1b 3e 8a 95 02 3e
       -0.23445788 0.24441263 0.15211189 0.12752357
0000c0 3b 07 3c be ed 09 25 3d 32 d9 e5 bd be 80 54 3e
       -0.18362133 0.04029267 -0.11223067 0.20752236
0000d0 12 43 ed 3d 7a 82 6e 3d 71 09 67 be d2 65 ce 3d
       0.11585058 0.0582299 -0.22562195 0.100780144
0000e0 d2 66 a8 3c 6b 6d 4d 3e 8e 5d e0 bd 10 0c c4 3d
       0.020556841 0.20061271 -0.10955344 0.09572613
0000f0 57 e9 9a 3d 5b 7e e4 3d 17 4e 49 3e bd 79 c8 3b
       0.07564037 0.11156913 0.19658695 0.006118028
000100 e9 4b 3b be 55 b7 08 3d c7 24 15 be 2a c2 11 3e
       -0.18290676 0.033377964 -0.1456481 0.14234224
000110 4c b9 58 bd d4 fe 7a be d6 68 8c 3d d1 29 eb bd
       -0.052911088 -0.24511272 0.06855933 -0.11482585
000120 a0 ab 2b bd 61 20 67 3d ea b6 56 be 33 b2 7d 3d
       -0.04191172 0.056427363 -0.20968214 0.061937522
000130 59 f8 24 3e c5 28 85 3d 10 e7 d5 3d 37 ec 63 3e
       0.16110362 0.06501917 0.10444462 0.22258078
000140 e0 cc 64 3d 14 26 19 3e d8 82 29 3d 80 44 fc bd
       0.055859447 0.14955932 0.041384548 -0.12317753
000150 73 84 66 3e a7 42 b7 bd b2 15 20 be b3 f4 4b be
       0.22511463 -0.0894826 -0.15633276 -0.19917564
000160 6d c1 57 3e 78 fd 79 3e 14 47 bd bd 71 01 4e 3e
       0.2106988 0.24413097 -0.09242073 0.20117737
000170 ff 8d 11 bd 34 44 77 3e d1 2c 99 3d 62 ea 2e 3e
       -0.03553581 0.24147111 0.07479251 0.17081597
000180 c8 e2 28 bd 44 7f 3c 3e 1a b7 24 3d 36 b3 0e be
       -0.0412319 0.18407923 0.04021368 -0.13935551
000190 c5 a0 d0 bd c3 9d c5 bd 23 4e 44 be fc a6 a8 bd
       -0.10186914 -0.09649231 -0.19170432 -0.08234975
0001a0 f5 79 8f 3d ff c3 46 be 18 ed bd bd ad 39 1a bd
       0.07005683 -0.19410704 -0.09273738 -0.03765266
0001b0 c6 3c 37 3e bc 9d 0b 3e c4 15 46 bd 2e 9c 77 3e
       0.17894277 0.1363439 -0.0483606 0.24180672
0001c0 74 b4 9b bd 73 2e 01 3e be 67 58 bb 57 a2 dd bc
       -0.07602778 0.12615375 -0.003302082 -0.027054949
0001d0 16 7c 51 be 32 2d 6d be a5 a1 03 bd a8 ce 41 3e
       -0.20457491 -0.23161772 -0.032136578 0.1892649
0001e0 ea 38 16 3e 0c 92 cd 3d bf ea 58 be f1 99 6c be
       0.14670148 0.10037622 -0.21183299 -0.23105599
0001f0 3a 64 29 bb ca 23 1c be 83 85 44 be 7d c1 98 3d
       -0.0025847093 -0.15248027 -0.19191556 0.0745878
000200 f2 20 e1 bd 4c 4f e5 bc dc fa 96 bd 40 ef 21 be
       -0.10992612 -0.027991913 -0.073720664 -0.15813923
000210 f2 80 48 3e 6a 9a 4e 3e 55 cc 2a be bf 7b 49 3e
       0.19580439 0.20176092 -0.16679509 0.19676112
000220 6a 9f 86 bd 68 aa 1a 3e 45 8a 5d 3e 74 a0 69 be
       -0.065733746 0.15104067 0.21634777 -0.22815114
000230 86 cd 09 3e a0 36 3b be b8 26 74 3e d7 88 e3 bc
       0.13457307 -0.18282557 0.23842895 -0.027775211
000240 b3 b9 14 bd 33 85 a4 bd f1 30 89 3d e6 46 0d be
       -0.03630991 -0.08033218 0.06698788 -0.13796577
000250 b8 ab 5b bc 9f c7 51 be 74 1e a7 3d 36 0b 2c 3e
       -0.01340764 -0.20486306 0.08160105 0.16801152
000260 f4 57 f8 3b f0 bd a1 3d 63 bd 27 be 51 77 64 3e
       0.007578844 0.07897556 -0.16380839 0.2231114
000270 16 4a ef 3d bd 3c 1e 3e fd 31 96 bd 6f b0 d9 bd
       0.11684053 0.15452857 -0.07333753 -0.10629355
000280 3b e6 4d be 8c 90 a7 bd 47 c8 25 3d e9 f8 30 3d
       -0.20107357 -0.08181867 0.040474202 0.04320613
000290 02 bb a2 bd 86 08 ba bd 59 ce 06 3e ca 51 56 be
       -0.07945825 -0.09083657 0.13164653 -0.20929638
0002a0 2a 7b a2 bd 15 e7 3d bd 05 af 58 be 7c cf 46 3e
       -0.07933648 -0.046362955 -0.21160515 0.19415087
0002b0 74 a8 07 3e 42 79 35 3e d1 8f 02 be 96 d8 2a 3e
       0.13247854 0.17722037 -0.12750174 0.16684183
0002c0 99 08 16 3e 76 63 2a be 50 f3 ce 3d db e7 6c 3e
       0.14651717 -0.16639504 0.10105002 0.23135321
0002d0 24 1a aa 3c 5f 9a 25 be c2 36 fa bb fa e7 cf bd
       0.020764418 -0.16172169 -0.007635922 -0.10151668
0002e0 91 a4 bd 3c 62 7f 01 3e 50 e2 c0 3d af 15 17 3e
       0.02314976 0.12646249 0.09418166 0.14754365
0002f0 2d 01 e2 3d fa 5e 23 3e 39 97 b6 bd f2 5e a0 bd
       0.110353805 0.159542 -0.08915562 -0.078306094
000300 2b e8 16 be c4 f6 ec 3d 14 1b 30 be 09 d5 77 be
       -0.14737003 0.11570504 -0.1719783 -0.2420236
000310 44 bb dc bd a8 bc da 3b 0b ab 71 3e d6 f7 86 bd
       -0.107779056 0.0066753216 0.23600404 -0.0659024
000320 d6 df c0 bd bc e3 98 bd fc f3 d7 bd ad bb 5d 3e
       -0.09417693 -0.07465312 -0.10544583 0.21653624
000330 ce 3b 63 be 97 80 4b 3e 97 0b a9 bd c2 2a 30 be
       -0.22190782 0.19873272 -0.08254164 -0.17203811
000340 56 91 09 3e b8 b0 a0 bc 89 d7 07 3e ec 72 09 bd
       0.13434348 -0.019615516 0.13265814 -0.033556864
000350 85 93 af 3c ca 48 4e 3e e3 09 37 3e 7d 42 30 be
       0.021432647 0.20144954 0.17874865 -0.17212863
000360 98 8c 6d be 34 8d 31 be 94 62 39 bd 19 31 75 3e
       -0.23198164 -0.17339021 -0.045260027 0.2394451
000370 93 7c d0 3d 67 b9 59 3c 83 cc 81 be 0e ec 54 3d
       0.10180011 0.013288832 -0.25351343 0.05198293
000380 7e 06 81 3e 49 34 9c bd 50 23 01 3e 11 31 e7 bd
       0.25200266 -0.0762716 0.12611127 -0.112886555
000390 08 55 4b 3e c8 f7 48 be 7c b2 35 3e 8f 38 21 be
       0.19856656 -0.19625771 0.17743868 -0.15744232
0003a0 51 f1 2c be 92 42 c4 3d b6 26 83 bd 0b 78 80 be
       -0.1688893 0.0958301 -0.06403868 -0.25091586
0003b0 fe d7 6e be ec d5 c1 3d a8 26 d8 bd 1b 49 df 3c
       -0.23324582 0.094646305 -0.10554248 0.02725654
0003c0 66 42 cb 3b 7c aa 83 be 5d 33 04 be 21 02 cf bd
       0.0062029837 -0.25716007 -0.12910219 -0.10107828
0003d0 01 9c 18 3e 2e 6e 50 3e ac e9 63 3e 5b 1c af bd
       0.14903261 0.2035453 0.22257107 -0.0855033
0003e0 db e1 44 bd 5e de a1 bc e2 90 3d bc 1f 3c 2a be
       -0.048066955 -0.019759353 -0.011570187 -0.16624497
0003f0 0f 12 42 3e 2a 11 81 bd 5d 62 eb 3c 44 a8 8f 3d
       0.18952201 -0.06302102 0.028733427 0.07014516

hidden3.bias f4 [100]
000000 9c 4a 7e 3a 5f cc 18 b6 42 9d 96 b8 21 63 a7 b8
       0.0009700449 -2.2768725e-06 -7.181849e-05 -7.981645e-05
000010 b7 6d 93 b9 83 75 ef 38 55 f7 a6 ba a3 4c 9d b7
       -0.0002811977 0.00011418296 -0.0012738506 -1.8751545e-05
000020 d8 4a 84 ba a2 c9 51 b9 8a 06 b9 b9 e0 71 db b9
       -0.0010093106 -0.00020006907 -0.00035290822 -0.0004185578
000030 80 4a 24 39 f9 b5 14 b9 61 9b 50 3a 28 8f 88 38
       0.00015668012 -0.0001418217 0.00079577236 6.51165e-05
000040 8f 59 16 3b c1 d2 95 38 c3 f5 07 b8 58 c4 28 39
       0.0022941565 7.1441296e-05 -3.241539e-05 0.00016094872
000050 06 d4 8c b7 5d f2 ad 38 89 16 ed b9 7b 3c 24 b9
       -1.6788032e-05 8.2944265e-05 -0.00045220953 -0.0001566279
000060 34 6b 1e 38 91 aa 0a b9 da 0f 14 bb 1d 34 0c 39
       3.7769976e-05 -0.00013224247 -0.0022592456 0.00013370854
000070 3d ee 0e b8 f0 9e 59 bb 64 8a 57 39 e8 b2 20 39
       -3.4077315e-05 -0.0033206306 0.00020555552 0.00015325437
000080 1a ca 17 3a c1 34 c9 ba 6f 36 43 39 36 7e 05 b8
       0.00057903084 -0.0015350805 0.00018616927 -3.1827214e-05
000090 d3 42 04 39 40 9b 63 39 59 df df 37 ad da b3 37
       0.00012613395 0.00021706242 2.6687676e-05 2.1440292e-05
0000a0 fc 39 32 b9 57 16 f3 39 17 f6 24 39 4d b7 15 39
       -0.00016997004 0.00046365216 0.00015731934 0.00014278032
0000b0 11 3d 9d 38 1f 7a cd b8 44 18 33 38 8f 97 50 b9
       7.497718e-05 -9.7979086e-05 4.2699525e-05 -0.00019892886
0000c0 e8 f4 74 38 f8 3a ae 38 a8 a1 1a 38 6e f1 58 39
       5.840222e-05 8.30795e-05 3.6867015e-05 0.00020689305
0000d0 fc 9e 84 b9 9e 6c aa b8 da 47 c1 38 c4 be 08 39
       -0.00025295455 -8.126463e-05 9.2163405e-05 0.00013041036
0000e0 ac 63 96 39 1a 5f d5 ba 5c f1 ef 39 db d7 1b 37
       0.0002868449 -0.0016278953 0.0004576546 9.288978e-06
0000f0 f9 38 3f ba 19 73 45 3a 83 6d b7 38 bd 34 10 b7
       -0.00072945614 0.00075321045 8.746518e-05 -8.595348e-06
000100 c0 08 07 ba 89 fd 61 b9 af ab cf b8 cf b8 2b 3a
       -0.0005151145 -0.00021552121 -9.902508e-05 0.0006550671
000110 52 33 95 3a 90 b5 a2 b7 4c 3e c7 b8 5c 25 fb 38
       0.0011383092 -1.9396452e-05 -9.500663e-05 0.000119755714
000120 9b b8 42 39 7e 70 0c 38 99 ee 33 38 7b 2b e1 ba
       0.00018570053 3.3483368e-05 4.2899137e-05 -0.0017179096
000130 7c e3 e9 b7 b3 0e 8b b9 54 bf 5f b8 85 23 ec b7
       -2.7881695e-05 -0.00026523098 -5.334553e-05 -2.8149932e-05
000140 28 5d 93 38 75 2a 2b b9 8b 03 d1 38 26 1b 2d b9
       7.026858e-05 -0.00016323647 9.9665565e-05 -0.00016508679
000150 d5 8d 7f b9 27 67 04 bb cb 85 6d b8 5f 3e fb 39
       -0.00024371532 -0.0020203085 -5.6629808e-05 0.0004792092
000160 91 53 c3 39 ae 60 60 ba 4b 12 a4 b8 5b 1f ea 39
       0.0003725556 -0.0008559328 -7.823537e-05 0.0004465532
000170 8c ae f9 b9 62 50 c6 b7 ef 82 eb b9 5a fc 8d 38
       -0.00047623029 -2.364087e-05 -0.00044920246 6.770408e-05
000180 ad 61 10 3a bc cc 65 39 07 ef fd 38 a5 59 40 37
       0.0005507719 0.00021915411 0.000121085024 1.1464964e-05

hidden4.weight f4 [100, 100]
000000 67 26 70 3d 7b 91 aa 3d a9 f6 62 3e 91 c7 17 3e
       0.058630373 0.083285294 0.22164406 0.14822222
000010 b4 71 6c be 8b a5 06 be fa e3 5b 3d b0 62 8d 3d
       -0.2309025 -0.13149087 0.053684212 0.06903589
000020 e8 d5 72 bc 35 62 ed 3d aa a1 cf 3d 10 8e 1b 3e
       -0.014821507 0.11590997 0.10138257 0.15190911
000030 49 27 02 be c4 da 40 be cd 8a 30 3e 32 69 76 3e
       -0.12710299 -0.18833452 0.17240448 0.24063566
000040 1b b4 e4 bd 3a f2 f8 bd eb b6 a6 3d a0 1d e3 3d
       -0.11167165 -0.12155576 0.081403576 0.11089635
000050 f8 01 3a be c4 1c 56 bd a2 75 4b bd fd be 11 3e
       -0.18164814 -0.052273527 -0.04967273 0.14233012
000060 e3 e2 75 3e ab d0 fc 38 c6 8f e3 bd a2 95 37 be
       0.24012332 0.00012055164 -0.11111407 -0.17928174
000070 b6 04 99 bd 6c ae 21 be 1a 26 32 be 3b b4 fe bd
       -0.07471602 -0.15789193 -0.17397347 -0.1243672
000080 ed 8f 2c 3d f4 a3 c8 3d 4d ce ee bd 83 c9 2c 3e
       0.042129446 0.097968966 -0.116604425 0.16873746
000090 d9 1d b4 3d 9d 91 7f 3e 9e f4 58 3d db 89 3f be
       0.087947555 0.24957891 0.05296766 -0.18704931
0000a0 44 7e ce 3d 12 92 02 3e 0b ab 60 3e bf c4 5c 3e
       0.10082677 0.12751034 0.21940248 0.21559428
0000b0 ff 6c 4b 3d d3 3c fa bd b4 9b ee bc 82 d0 9e 3d
       0.049664494 -0.122186325 -0.02912698 0.077546135
0000c0 ff 62 9e 3c 42 a5 43 3e 85 25 11 bd 33 ff 15 3e
       0.019334314 0.1910601 -0.035436172 0.14648132
0000d0 2f 43 f7 3b 57 b9 ee 3d cb 4f 17 3e 04 8b 41 3e
       0.0075458507 0.116564445 0.14776532 0.18900687
0000e0 9c b9 98 3d 11 b2 5a 3e 57 45 ad bd 76 c9 f2 bb
       0.07457277 0.2135699 -0.08460491 -0.00740927
0000f0 7e f0 b8 bc 97 d7 07 3e 46 e6 6e 3e b9 22 39 3e
       -0.022575613 0.13265835 0.2333003 0.18079652
000100 10 af 62 bd d5 6f 22 be 37 7d 17 3e dc f9 1c be
       -0.055342734 -0.15862973 0.1479386 -0.15329689
000110 b2 43 4d be 02 b6 68 3e 34 6c 20 be 44 f2 5b bd
       -0.20045355 0.2272568 -0.15666276 -0.05369784
000120 61 4d d8 3d a5 ad 64 3e 6c 9f 0a bd 22 f7 fd 3d
       0.10561634 0.22331865 -0.033843443 0.124006525
000130 bc fb 7d be 5e c6 b4 3d d0 b4 b0 bd 7b af 3e 3e
       -0.2480306 0.08826898 -0.08628237 0.18621628
000140 de 19 73 bd 1d b2 e4 3c 2a 91 25 3e 31 73 3a be
       -0.05935084 0.027916962 0.16168657 -0.18208005
000150 98 f4 7e bd 9c 4e 28 3e 53 d3 77 3b e7 f9 ac 3d
       -0.06224498 0.16436237 0.0037815168 0.084461026
000160 b1 91 15 be 30 01 39 be 6c 86 11 be 77 96 b1 bd
       -0.14606358 -0.18066859 -0.14211434 -0.08671277
000170 41 38 85 3d 39 32 87 bd 5a 4d 6e bd 6c ef 29 3e
       0.0650487 -0.06601376 -0.058179237 0.16595238
000180 d1 bc cd bb 72 c9 3c bd 58 9d 81 3d 36 bd 38 be
       -0.006278612 -0.04609055 0.06328839 -0.18040928
000190 7c 8d 0a bc c6 46 59 be c8 b9 94 3d be 26 c3 bd
       -0.008456584 -0.21218404 0.072619975 -0.09528874
0001a0 23 1d 2f be f6 ad 2b be 68 5d 58 3e 92 26 cc ba
       -0.17100959 -0.1676558 0.21129382 -0.001557546
0001b0 f0 79 6c be c9 26 f6 bc ed de e7 bd a7 80 32 3e
       -0.2309339 -0.030047791 -0.113218166 0.1743189
0001c0 50 ed 60 bd 24 a2 57 be ba 48 87 3d d6 cd ac bd
       -0.05491382 -0.21057945 0.06605668 -0.084376976
0001d0 43 f6 2d be 0b a6 cf 3d 5d 5d 83 3e 9b f1 2c 3e
       -0.16988473 0.10139092 0.25657168 0.1688904
0001e0 49 76 01 3e b1 d5 94 bd 9b 4b 0e 3e 9d e9 cd bd
       0.12642778 -0.07267321 0.13896029 -0.10054324
0001f0 10 8f 52 be fb 64 d8 bd 35 a7 98 3d 98 77 26 3e
       -0.20562387 -0.105661355 0.07453767 0.16256559
000200 1b 8d 6b be 50 7f e9 bb 6c 89 98 3d 6f 1b e6 3d
       -0.23003046 -0.0071257725 0.07448086 0.11235701
000210 47 d2 6b be 0c d1 81 3d 83 11 20 3d fd 15 b1 bb
       -0.23029433 0.06338701 0.0390792 -0.0054042325
000220 25 6d 3b 3e 14 58 7d 3d a6 e3 c3 3d 62 03 f2 3d
       0.18303354 0.061851576 0.09564905 0.118170515
000230 e5 c4 9e 3d 6a b3 8e bd e8 e8 a2 3d 4f e7 e5 bd
       0.077523984 -0.06967814 0.079545796 -0.11225759
000240 65 34 b7 3d 46 19 0d bd 7f ce 6a 3e 10 ed 0c 3e
       0.0894554 -0.03444793 0.22930335 0.13762307
000250 5a ac 89 3d bf 1c a1 bd c1 7c 52 be db ee 5b 3e
       0.067223266 -0.07866811 -0.20555402 0.21477835
000260 67 81 9e bd 23 88 d4 bc 18 df a1 3d d8 a2 4a 3e
       -0.07739525 -0.025943821 0.0790388 0.19788682
000270 70 96 21 3e 81 7d 29 3e 1a cc 69 be a7 a5 63 3e
       0.15780044 0.16551782 -0.22831765 0.2223116
000280 24 78 f1 bc b4 57 c2 bd ac df e1 bd ce e5 21 bc
       -0.029476233 -0.09489384 -0.1102899 -0.00988145
000290 b7 34 28 3e b9 51 10 be 99 9c 61 3e ac f4 4a 3e
       0.16426359 -0.14093675 0.22032394 0.19819897
0002a0 31 26 90 bd 5f c2 6b 3e 44 30 20 be e9 c6 23 3d
       -0.070385344 0.23023365 -0.15643412 0.039984617
0002b0 09 c7 cb bd 8a 22 7b 3e 3f 4b 6f 3e 9a 65 5e 3e
       -0.09950072 0.24524894 0.23368548 0.21718445
0002c0 fc ca 9a bc b7 a6 52 3e 63 eb 88 3d 58 2d 79 3e
       -0.018895619 0.20571409 0.066855215 0.24333704
0002d0 5f 35 08 be d3 ee 5b be e7 40 24 3e 63 12 37 3e
       -0.1330161 -0.21477823 0.16040383 0.17878108
0002e0 4e f4 7b bd e0 61 56 3e 15 b2 a3 3d e0 20 3e be
       -0.061512284 0.20935774 0.07992951 -0.18567228
0002f0 f2 02 8d 3c 4a db 74 bd bc fd d3 3d ba 68 2e 3e
       0.017213318 -0.059779443 0.1035113 0.17032138
000300 0b 42 28 be 4a 31 6b be 3c 30 72 3e 2f 2d e6 3d
       -0.16431443 -0.22968021 0.23651212 0.11239087
000310 2b 94 6c bd 0a ea b0 bd f9 13 44 3d 64 e7 01 3d
       -0.05775849 -0.086383894 0.04787061 0.031714812
000320 27 34 0d be 57 7c 3b be 0f 7d 88 3d c8 43 25 3e
       -0.13789426 -0.1830915 0.06664478 0.16139138
000330 06 02 8c bd 6a 34 7b 3e 6f d7 0c 3e d7 d0 6b 3e
       -0.068363234 0.24531713 0.13754056 0.23028885
000340 c9 c4 26 be b2 98 28 be 77 60 7b 3d f1 1a 1b be
       -0.16286005 -0.16464499 0.061371293 -0.15146996
000350 29 8f 7d 3d 39 40 a3 3c 44 21 22 3e 55 ba 20 be
       0.061904106 0.019928085 0.15833002 -0.1569608
000360 08 6b 45 be c2 fb 1b bc 84 71 59 3e e9 a2 41 be
       -0.1927911 -0.009520473 0.21234709 -0.18909802
000370 9b 44 40 be 1c 46 6c 3e 7f fa 78 be 60 ef 43 3d
       -0.18776171 0.2307362 -0.24314307 0.047835708
000380 89 f7 58 be 7e 5b 6c 3e 93 8e e2 3d 8b d2 70 be
       -0.21188177 0.23081776 0.1106235 -0.23517816
000390 de bc 28 3e c6 55 8a 3d 28 ed 3a bd 69 8d f1 bc
       0.16478297 0.06754641 -0.045636326 -0.029486375
0003a0 a8 fc c9 3d 6f f1 3b be 1f ea 19 3e e2 f7 04 3d
       0.098626435 -0.18353818 0.15030716 0.032462962
0003b0 06 74 90 bd d4 fa 95 bd 29 a1 01 be be 0c eb bc
       -0.0705338 -0.07323232 -0.12659134 -0.0286926
0003c0 31 72 37 3e c7 cc 2e be 12 d4 86 3d 65 14 c0 3d
       0.17914654 -0.17070304 0.06583418 0.0937889
0003d0 0e 77 51 3e 60 43 bd 3d b9 94 0b be 66 fd 48 bd
       0.20455572 0.092413664 -0.13630952 -0.049069785
0003e0 4c 06 e7 3d e4 f0 47 bc 04 7d 6a bd 43 57 ab 3d
       0.11280498 -0.012203429 -0.05724813 0.08366253
0003f0 2f bb ec bd ea fd d6 bd c3 15 69 be fe e8 70 be
       -0.1155914 -0.10497649 -0.22762208 -0.2352638

hidden4.bias f4 [100]
000000 e0 73 0f b8 d1 71 3e b9 64 fa 3a 39 0c b8 38 38
       -3.4201774e-05 -0.00018162212 0.0001783162 4.4040426e-05
000010 b9 af 69 38 86 60 36 39 9e ca 58 3a 6e e2 73 b7
       5.5715183e-05 0.0001739283 0.00082699384 -1.4536648e-05
000020 8b 47 bc 38 3a 8f 7f 37 72 8d 00 b7 cd 24 68 b9
       8.9778645e-05 1.5232532e-05 -7.662327e-06 -0.00022138953
000030 65 38 5b 38 ed fa 1b 35 57 2d b9 39 57 55 0a b8
       5.226619e-05 5.8107145e-07 0.0003531973 -3.2981243e-05
000040 3b b8 a3 37 06 b5 e1 38 e7 d1 82 b9 56 69 df 38
       1.9516903e-05 0.00010762554 -0.00024951922 0.00010653089
000050 5c d2 40 39 da a7 f9 38 db 55 2b b9 77 81 c1 38
       0.00018388912 0.0001190451 -0.00016339814 9.227072e-05
000060 4f bf 85 b9 8f a0 d2 39 4f 9b 10 b3 87 73 21 b9
       -0.00025510273 0.00040173947 -3.3668865e-08 -0.00015397194
000070 c1 a1 01 ba 97 53 b5 38 e9 db d5 3a 9b 32 b7 35
       -0.00049450627 8.6463224e-05 0.0016316149 1.3649291e-06
000080 51 83 49 37 f7 ae 9d 39 8b 32 02 b9 30 f8 15 ba
       1.2011108e-05 0.00030075733 -0.00012416595 -0.0005720882
000090 8e 6f 00 b9 52 b1 49 39 c3 20 b4 b9 af 3c 81 b9
       -0.00012248589 0.0001923491 -0.00034356685 -0.0002465001
0000a0 84 3c e5 38 d4 cd e9 b8 40 64 3a b7 57 57 01 b9
       0.00010930843 -0.00011148644 -1.1109805e-05 -0.00012334935
0000b0 c5 b1 a0 37 f4 fb f3 38 5f 4a a5 39 1c 3d 2b ba
       1.9156267e-05 0.00011634073 0.00031526663 -0.00065322383
0000c0 38 97 3d ba c3 56 13 b8 34 15 01 b8 f7 f4 a0 39
       -0.0007232311 -3.5128334e-05 -3.0775744e-05 0.0003070009
0000d0 5e 1f 68 ba ba 3e 75 b9 44 1e 28 b9 8a 86 b2 38
       -0.0008854772 -0.00023388388 -0.00016033003 8.512761e-05
0000e0 6a 83 42 36 fc 4a 61 38 ad a7 92 b8 87 93 a0 b7
       2.8984746e-06 5.3714015e-05 -6.9930546e-05 -1.9142184e-05
0000f0 34 9c 49 b9 d7 27 a5 38 98 34 91 b9 a4 a1 a1 b9
       -0.00019227044 7.875234e-05 -0.0002769574 -0.00030828745
000100 69 58 81 b8 53 d3 bc 39 a8 34 b7 b8 b7 a0 25 3a
       -6.167667e-05 0.00036015603 -8.735928e-05 0.0006318199
000110 1f 81 bd b9 4e 61 55 b8 7e e5 24 b8 63 ce ce 38
       -0.00036145092 -5.087378e-05 -3.931438e-05 9.861288e-05
000120 38 2f c6 b8 d8 88 18 b9 67 ef c9 b8 db 87 8d 38
       -9.450171e-05 -0.00014546828 -9.629019e-05 6.748709e-05
000130 4b d3 29 b9 6a e4 42 b9 94 4f 8c 38 da f8 05 38
       -0.00016195809 -0.00018586373 6.690543e-05 3.1941432e-05
000140 75 64 37 39 38 29 e7 3a 07 72 34 37 76 33 26 39
       0.00017489663 0.0017636186 1.0755385e-05 0.00015850164
000150 9f 7c 2a b5 c4 0a 73 b7 33 cc 05 b8 d1 6f 91 38
       -6.351128e-07 -1.4486435e-05 -3.1899846e-05 6.934966e-05
000160 7a 12 47 38 22 39 9b b7 b0 4e 9e 39 d7 89 fe b9
       4.7462505e-05 -1.8504044e-05 0.00030194735 -0.00048549354
000170 c4 82 c7 b8 e0 5f 14 b8 ba 03 22 39 f5 5a 58 b9
       -9.5134164e-05 -3.537524e-05 0.00015450912 -0.0002063325
000180 fe 5d 34 39 64 66 12 b9 89 d8 1d 39 3a 51 b3 b9
       0.00017201153 -0.00013961788 0.00015053352 -0.0003420206

hidden5.weight f4 [100, 100]
000000 cb 18 ba bc bc 50 45 3d 0a 91 f5 bb 4f a3 da bd
       -0.0227169 0.048172697 -0.0074940966 -0.1067568
000010 ac 18 27 3e 71 3b 00 be 64 52 79 3e 0f 34 06 be
       0.16318005 -0.12522675 0.24347836 -0.13105796
000020 8c 12 70 3e ba 80 74 3d 05 c2 70 3e 0a fc 08 bd
       0.23444575 0.059693076 0.23511513 -0.03344349
000030 57 b9 95 3d a2 d3 42 3d a5 88 16 bd f4 c9 09 3e
       0.073107414 0.04756511 -0.036751408 0.13455945
000040 2e 4d e8 3d ae f7 ee bd fb 35 19 3d 17 61 6f bc
       0.11342846 -0.11668335 0.037404995 -0.01461055
000050 0c 94 05 be 83 76 74 be c8 91 02 be 20 b4 6f 3e
       -0.13044757 -0.23873334 -0.12750924 0.23408556
000060 b7 31 1f be 92 f3 7e bd 9f 8c 34 3d 4e 05 50 bd
       -0.15546308 -0.062244006 0.04407942 -0.05078631
000070 31 29 76 bd a8 2b ca 3c d2 db 5f 3e a1 87 4d 3d
       -0.060097877 0.02467902 0.21861199 0.050178174
000080 6c a2 24 be f3 fb f1 3d 7c 83 46 bd ae 76 69 3e
       -0.16077584 0.118156336 -0.048465237 0.22799179
000090 89 25 98 3d 8e e9 5b be bf c4 71 be 61 72 6f 3e
       0.07429034 -0.21475813 -0.23610209 0.23383476
0000a0 59 72 89 3d 7d 72 f2 bd 83 a9 2d 3e 13 f8 60 3e
       0.06711263 -0.11838243 0.16959195 0.21969633
0000b0 0f dd b9 3d fa 59 99 bc f0 0a af bd 3e eb e1 3d
       0.09075367 -0.018719662 -0.08547008 0.11031197
0000c0 7b 7d df 3d b2 fd 65 3e f0 03 ea 3d f5 d9 6c 3d
       0.109126054 0.22460058 0.11426532 0.057825048
0000d0 1e 15 a3 bd 91 eb 35 bd 76 cf 28 be 67 be 8a bc
       -0.07963012 -0.044414107 -0.1648539 -0.016936494
0000e0 b6 03 35 3e 61 b9 2f 3b cf 4d ef 3d 08 df 36 be
       0.17677197 0.0026813375 0.11684763 -0.17858517
0000f0 ff 8c d1 3d 4a 56 54 3e ca a6 59 bd 7f 31 9d bd
       0.10231971 0.20736042 -0.053137578 -0.07675456
000100 b5 9a ae bd 66 60 cb bc 79 87 ea bd 23 31 2a be
       -0.08525602 -0.02482624 -0.114516206 -0.16620307
000110 cb cc 91 bd bc 8b f1 bc 39 de f7 3c 93 ad 5d bd
       -0.07119139 -0.029485576 0.030257331 -0.05412061
000120 a5 d2 36 3e 2d 41 56 3e e4 a9 43 be 45 04 07 be
       0.17853792 0.209233 -0.19107777 -0.13185222
000130 50 ef 4b 3c 4c 6b e1 3d a9 c3 77 3e cb f3 39 be
       0.012447193 0.110067934 0.24195732 -0.18159406
000140 fc 53 11 3e 76 be a7 bd c6 e1 c0 3d bf 98 07 be
       0.14192194 -0.081906244 0.09418063 -0.13241862
000150 c2 ba 6d 3e c7 1f 38 3e 1b cb 2b 3d c1 ce 30 be
       0.23215774 0.17980872 0.041941743 -0.1726637
000160 0e 6d 76 be 87 5f 58 be 14 6b 11 be d4 2d 67 be
       -0.24065039 -0.21130191 -0.14201003 -0.22576076
000170 24 ec 0f 3d f7 5b b3 bd 8c 7c 3b 3e 38 59 3f 3e
       0.03513731 -0.08757775 0.1830923 0.18686378
000180 e0 cc 17 3e 72 30 7f bc 67 33 d9 39 d3 31 23 be
       0.14824247 -0.015575515 0.00041427763 -0.15936975
000190 30 5a f5 bd 6f 0a 55 be 74 d0 54 3e e4 36 3e bc
       -0.119800925 -0.20804761 0.20782644 -0.011609767
0001a0 f7 93 51 3e 6d f1 7a 3d d4 0d 2e 3c 71 18 50 be
       0.204666 0.061265398 0.010623414 -0.20321824
0001b0 c5 cb 9a bd 2c fc 00 3d da 60 a6 3c 41 94 2d 3e
       -0.07558397 0.03149049 0.020309854 0.16951086
0001c0 3e b2 40 be ac 04 48 3d d7 ce 5d be 36 70 53 bd
       -0.18817994 0.04883258 -0.21660934 -0.051620685
0001d0 1f 89 5e 3e 89 8e 06 3e b0 3a 90 bd cf fb 60 3e
       0.21731995 0.1314031 -0.07042444 0.21971057
0001e0 6c f2 a3 3d 76 3f bb bd 69 83 33 3e 7a 57 1a be
       0.08005223 -0.091429636 0.17530598 -0.15072432
0001f0 37 6f 26 be 21 62 8d bc 77 34 2a 3e 44 c0 a3 3d
       -0.16253363 -0.017258706 0.16621576 0.07995656
000200 c7 93 2c be b2 17 0b be 90 22 41 3d 8c b8 25 bd
       -0.16853248 -0.13583258 0.047152102 -0.0404592
000210 9f cd 98 bc d3 cf 55 bd 83 47 46 be 82 f9 1f be
       -0.018652735 -0.05220015 -0.19363217 -0.15622523
000220 74 73 71 be 33 9d df bd 67 00 bc bd 2f 73 b4 bd
       -0.23579198 -0.10918655 -0.09179764 -0.08811032
000230 fd 55 4b 3e 09 40 c5 bd dd f5 72 ba 81 a5 4c bd
       0.1985702 -0.09631354 -0.0009268204 -0.049962524
000240 5a 38 20 bd 92 c5 ef bd 9d 3c 07 be 9a 2e 5b be
       -0.03911624 -0.117076054 -0.13206716 -0.21404496
000250 69 0d 1c 3e f0 e2 02 be 3a e5 48 3e a4 f1 10 3e
       0.1523949 -0.12781882 0.19618693 0.14154679
000260 a4 31 73 3e 92 9c 04 be 3e eb f2 3c 97 37 37 3e
       0.23749405 -0.12950352 0.029653188 0.178923
000270 c9 a6 f7 bd 5c 31 09 3e 18 24 b5 3c 87 fd 53 3d
       -0.120923586 0.13397735 0.022111937 0.051755454
000280 c2 86 16 be 31 06 4b be 1d e0 1a be 07 b5 40 3e
       -0.14699844 -0.1982658 -0.15124555 0.18819056
000290 80 3c 10 3e 86 2e 5e 3e c1 cb 0c 3d 46 14 df 3d
       0.14085579 0.21697435 0.034374002 0.10892539
0002a0 75 c5 cd bd bb 17 0c be 93 ea 33 be d1 26 19 be
       -0.100474276 -0.13680927 -0.17569952 -0.14956214
0002b0 76 e0 52 3e 0f 48 a8 3d e6 82 48 be e4 fd 09 3e
       0.20593438 0.08216869 -0.19581184 0.13475758
0002c0 47 fb 2e be d7 b5 5c be 5f 31 53 be fd e7 ee bd
       -0.17088042 -0.21553741 -0.20624302 -0.11665342
0002d0 99 e9 14 3e b3 d9 3e 3e e8 39 4e 3e 99 16 53 be
       0.14542235 0.18637733 0.20139277 -0.20614089
0002e0 af 54 20 be 3c f2 54 3e 11 67 b6 3d 45 08 43 be
       -0.15657304 0.2079553 0.08906377 -0.19046123
0002f0 d3 de 08 be d1 e8 2f be 90 e0 9b bc 1c ae 25 be
       -0.1336625 -0.17178656 -0.019027978 -0.16179699
000300 78 af 34 be 34 32 4b 3e d3 be 0a 3e 7c 10 d5 bd
       -0.17645061 0.1984337 0.13549356 -0.10403535
000310 f9 74 0c be d8 32 bb bc c5 db 44 3e 1b 57 1c 3d
       -0.13716497 -0.022851393 0.1922446 0.038169008
000320 45 09 90 bd 01 54 74 3d 80 12 18 be f0 04 5d 3e
       -0.07033018 0.059650425 -0.14850807 0.21583915
000330 d6 7c 07 3e eb 44 16 3e 11 43 51 bd a8 12 98 3d
       0.13231215 0.14674728 -0.05108935 0.074254334
000340 cc a1 5a be 07 ec bb 3d 74 db 49 be 49 40 cb 3c
       -0.21350783 0.09175878 -0.19712621 0.024810927
000350 90 5b 37 3e 9f 1e ce 3c 1b fa 09 3e ca 2a bb 3d
       0.17906022 0.025161086 0.13474314 0.09139021
000360 dd 45 0f be a6 96 59 3e 19 43 03 bd b0 6e 33 be
       -0.13991494 0.21248874 -0.03204641 -0.17522693
000370 25 be ea 3d df 5d 8a bd b4 5c 85 3d bc b1 6f 3e
       0.114620484 -0.06756186 0.06511822 0.23407644
000380 73 90 45 be b8 90 27 bc 8b 8c 1c 3e 8b a3 42 3e
       -0.19293384 -0.010227375 0.15287988 0.19007699
000390 b2 34 37 3e 51 a3 b6 bd 4e a5 c3 3d 70 e7 5a 3d
       0.17891195 -0.08917869 0.09553014 0.053443372
0003a0 07 b9 3d 3e 23 f5 58 3e 6e c3 32 be 27 e6 60 3e
       0.18527614 0.21187262 -0.17457363 0.21962796
0003b0 e5 a7 e5 bd 09 4a 07 3d 1d b3 d6 bd 3f a4 5e 3d
       -0.11213664 0.03302959 -0.10483382 0.054355856
0003c0 34 79 89 3d eb 66 4d be 53 6f 6a be 33 33 ee bd
       0.06712571 -0.20058791 -0.2289403 -0.11630859
0003d0 b7 20 e8 3b f7 b4 3b 3d 76 2f 6e be c1 2e 81 3c
       0.007083978 0.04582688 -0.23260292 0.015769364
0003e0 2f 91 0c 3e 27 5f 1b 3e 9d 39 65 be 2f 00 51 be
       0.13727258 0.15173016 -0.22385259 -0.20410226
0003f0 94 9b 91 bd d1 6d 05 bd f0 ab 95 bd 16 47 ec bd
       -0.07109752 -0.032575432 -0.07308185 -0.11536996

hidden5.bias f4 [100]
000000 96 25 9a 38 44 17 02 ba d6 cb 7e bb 59 f3 93 bb
       7.350293e-05 -0.00049625733 -0.003887882 -0.0045150933
000010 88 5f f3 ba ce 5e a1 b9 66 34 be ba ae 86 08 3b
       -0.0018567899 -0.00030778948 -0.0014511466 0.0020832228
000020 a1 04 35 36 17 be 6b 3a 2e e0 a9 ba 34 3d 06 b9
       2.6973796e-06 0.0008992864 -0.0012960488 -0.00012802036
000030 81 da 69 38 53 8d 81 b9 55 0c 50 39 2a eb 1f 3b
       5.5755027e-05 -0.00024710092 0.0001984102 0.0024401643
000040 b6 92 85 b9 6d 25 22 3b a3 4d 65 ba 32 fa 12 3b
       -0.00025477045 0.0024741546 -0.00087472255 0.002242696
000050 ef 84 91 3a 8e 3b 75 3a 7a d5 b4 ba a6 b2 65 ba
       0.0011102239 0.00093548826 -0.0013796531 -0.00087622774
000060 29 7d f0 3a b4 a4 dd 36 b2 e3 d4 3a 9f 13 21 bb
       0.0018347848 6.605487e-06 0.0016242175 -0.0024578345
000070 6d 3d e1 b9 39 41 d8 b9 8f ab 63 3a 5f 85 8a 39
       -0.0004296111 -0.00041247325 0.0008684927 0.0002642078
000080 d5 98 06 ba cd d7 ce 3a 30 ce 5e 3a ae 01 e6 b8
       -0.0005134468 0.0015780866 0.0008499352 -0.000109675675
000090 3d 1d ed b9 f5 7d 10 3b 74 b2 b4 b8 7f a6 4b 39
       -0.00045225947 0.0022047732 -8.616308e-05 0.00019421613
0000a0 44 39 97 ba 06 b1 62 bb 46 cb 85 3a 01 39 1e b9
       -0.0011537452 -0.0034590377 0.0010207675 -0.0001508929
0000b0 1b b0 8e 3a 00 9e 6b 3b ce 6b 28 3a 2b 18 f8 3a
       0.0010886224 0.003595233 0.00064247556 0.0018928101
0000c0 c8 c7 a9 3a a9 fd 9c 3a 02 79 be b6 99 c0 ad ba
       0.0012953216 0.0011977452 -5.6765284e-06 -0.0013256251
0000d0 d0 ae 83 38 6b 33 38 ba 00 3e fa 39 fa 25 fd 38
       6.279128e-05 -0.0007026705 0.0004772991 0.00012071054
0000e0 f1 0a e3 3a 2c 5b 73 38 c1 39 4b ba e2 a9 8e ba
       0.0017321986 5.8020625e-05 -0.00077524415 -0.0010884369
0000f0 73 9d 00 b7 d8 9c c4 b9 31 4f a8 3a 00 cc 54 3a
       -7.6660535e-06 -0.0003750089 0.0012840984 0.00081175566
000100 92 87 25 bb 7c 87 29 3a 6c 74 a5 39 1a 99 78 3b
       -0.0025257808 0.0006467027 0.00031557993 0.0037933053
000110 5d d1 2b bb 13 02 94 ba 4d 43 a2 3a 05 10 7b 39
       -0.002621732 -0.0011292122 0.0012379676 0.00023943193
000120 34 b7 a4 3a ed 7c 97 ba 56 c6 47 bb c8 6d 8d 38
       0.0012566806 -0.0011557617 -0.0030483208 6.743852e-05
000130 a3 59 00 bb a3 74 83 b8 c8 c1 a6 38 be 55 33 38
       -0.0019584678 -6.268292e-05 7.9515914e-05 4.275678e-05
000140 17 f1 58 38 a0 4d 91 ba bb 14 4d ba b8 2e 04 bb
       5.1722945e-05 -0.0011085756 -0.00078232185 -0.0020169448
000150 e5 6b 39 ba 3f f4 c1 ba 52 41 50 ba 30 28 b1 39
       -0.00070732675 -0.0014797522 -0.0007944304 0.00033790013
000160 df ef a8 ba 4f 99 94 b8 ed c7 25 3a cc 64 9c b5
       -0.001288887 -7.085746e-05 0.0006324042 -1.1652241e-06
000170 11 cd bb 39 8f 51 69 37 52 d0 8d 3a f4 41 8a 39
       0.00035820206 1.3906872e-05 0.001081953 0.0002637055
000180 2c 6f eb 39 79 b8 13 ba c5 a9 ec b7 67 5e 07 39
       0.00044905522 -0.00056350935 -2.8212447e-05 0.00012909771

hidden_bn1.weight f4 [100]
000000 8b fe 7e 3f 46 6a 7f 3f d8 88 7f 3f 4d 6c 80 3f
       0.9960715 0.99771535 0.9981818 1.0033051
000010 77 40 7e 3f ae da 7f 3f 77 65 80 3f 95 a0 7e 3f
       0.99317116 0.99943054 1.0030965 0.9946378
000020 90 7e 7e 3f c4 cd 7e 3f ba c9 7e 3f 3d 47 7e 3f
       0.9941187 0.99532723 0.9952656 0.9932745
000030 7b a1 7e 3f 42 29 7f 3f d6 21 80 3f 7e f5 7f 3f
       0.9946515 0.9967233 1.0010326 0.99983966
000040 c8 77 80 3f 71 94 80 3f 30 bf 7f 3f 13 55 80 3f
       1.0036554 1.0045301 0.99901104 1.0025963
000050 70 6a 80 3f ea e1 7e 3f 39 f6 7f 3f fd cc 7e 3f
       1.0032482 0.9956347 0.9998508 0.9953154
000060 3a c8 7e 3f dd 13 80 3f 3a f8 7f 3f d9 52 7f 3f
       0.9952427 1.0006062 0.9998814 0.9973579
000070 82 8e 80 3f 2e 37 80 3f 26 15 80 3f ff 59 80 3f
       1.004349 1.001684 1.0006454 1.0027465
000080 84 86 80 3f 9e 76 80 3f 11 54 80 3f 0b 69 80 3f
       1.0041051 1.0036199 1.0025655 1.0032057
000090 f0 85 80 3f 88 76 7e 3f e3 fc 7e 3f 8f c5 7f 3f
       1.0040874 0.99399614 0.99604625 0.99910825
0000a0 8c 2b 7f 3f 6e 2c 80 3f f5 f3 7e 3f 10 9c 80 3f
       0.9967582 1.0013559 0.99591 1.0047626
0000b0 5d 18 80 3f 2c 44 80 3f 7c 39 7e 3f 5a d3 80 3f
       1.0007435 1.0020804 0.99306464 1.0064499
0000c0 96 48 80 3f 18 77 7f 3f fe d8 7f 3f f2 af 80 3f
       1.0022151 0.997911 0.9994048 1.0053694
0000d0 5a 6d 80 3f 88 76 80 3f d6 aa 80 3f 66 9c 80 3f
       1.0033371 1.0036173 1.0052135 1.0047729
0000e0 ee 33 80 3f 8b 2a 80 3f 4f 54 80 3f 13 d2 7f 3f
       1.0015848 1.0012983 1.0025729 0.9992992
0000f0 ad 39 80 3f da 48 7f 3f f1 b2 80 3f 45 e6 7f 3f
       1.0017601 0.9972054 1.0054609 0.9996074
000100 32 ba 7e 3f 51 ea 7e 3f 06 74 80 3f 39 70 80 3f
       0.9950286 0.9957629 1.0035408 1.0034248
000110 d6 82 7e 3f 5b 5e 80 3f 8f 85 80 3f 10 1a 80 3f
       0.9941839 1.0028795 1.0040759 1.0007954
000120 94 1f 7e 3f 74 10 80 3f 39 4e 7f 3f 01 aa 80 3f
       0.99266934 1.0005021 0.99728733 1.0051881
000130 19 41 80 3f 7b 84 7e 3f 47 99 7f 3f f3 df 80 3f
       1.0019866 0.994209 0.9984326 1.0068344
000140 83 4c 7f 3f bc 7e 7e 3f 37 f1 7f 3f 7b ba 7f 3f
       0.9972612 0.9941213 0.9997744 0.9989392
000150 5c 35 80 3f f9 2b 80 3f c1 ac 80 3f b2 80 7e 3f
       1.0016284 1.0013419 1.005272 0.99415123
000160 d9 e3 80 3f ca 42 7f 3f 35 3b 80 3f a4 78 7f 3f
       1.0069534 0.9971129 1.0018069 0.9979346
000170 67 7a 80 3f 4c 0e 7f 3f ec 23 7f 3f 1a 7c 7f 3f
       1.0037354 0.9963119 0.9966419 0.9979874
000180 06 79 7f 3f e0 9d 80 3f 69 d4 80 3f 99 d0 7f 3f
       0.9979404 1.004818 1.0064822 0.9992767
