models/SineApproximator.pt (torch, 2584 bytes, 3 tensors)

hidden.weight f4 [30, 1]
0.17545386 -0.31486246 -0.9490769 -0.4315698 -0.23934215 0.5478244 -0.842137 -0.97708595
0.6280635 -0.85866284 0.34504136 -0.55497795 1.01852 0.6874698 1.1561161 0.13771415
0.3773061 -0.43047994 -0.44227466 -0.7987109 0.9389597 0.5173199 0.5915709 0.49035048
0.34185144 0.15929037 0.36535433 -0.77004176 -1.051834 -0.63856757
00000000: 2daa 333e a735 a1be b4f6 72bf b8f6 dcbe
00000010: 1c16 75be 383e 0c3f 4a96 57bf 4e22 7abf
00000020: c5c8 203f 54d1 5bbf 43a9 b03e 0913 0ebf
00000030: dd5e 823f 05fe 2f3f 9dfb 933f f004 0d3e
00000040: 442e c13e de67 dcbe d371 e2be 5178 4cbf
00000050: aa5f 703f 146f 043f 3171 173f 380f fb3e
00000060: 2707 af3e 041d 233e b90f bb3e 7521 45bf
00000070: 7fa2 86bf 2a79 23bf

hidden.bias f4 [30]
0.052166294 -1.1623245 -0.3619535 0.03641468 0.8778875 0.97312135 1.3512077 3.8919427
0.53771704 1.385447 -2.0988936 0.9010697 -0.13781916 -1.8423517 -0.7841317 0.564834
-0.46932027 -0.5372328 -0.9047369 2.3682277 -0.092880525 -0.6121317 -1.1243596 -0.4740011
0.4510903 0.1605249 0.9695423 4.788704 -0.52113986 1.5001247
00000000: 53ac 553d 0dc7 94bf f851 b9be 8f27 153d
00000010: 3cbd 603f 7b1e 793f 60f4 ac3f 9715 7940
00000020: d3a7 093f 5456 b13f 4654 06c0 81ac 663f
00000030: 7720 0dbe 2ed2 ebbf dbbc 48bf f698 103f
00000040: bf4a f0be 1788 09bf d69c 67bf 0b91 1740
00000050: 2538 bebd aab4 1cbf 04eb 8fbf 46b0 f2be
00000060: 4ff5 e63e a460 243e ed33 783f 103d 9940
00000070: 6c69 05bf 1604 c03f

output.weight f4 [1, 30]
0.23832151 -0.016741037 -0.17104813 0.12783991 -0.26909423 0.09108099 -0.31474814 0.5046502
0.16295594 -0.37566224 0.86617374 0.44294187 0.28164777 -0.5952387 0.35891315 0.24425055
0.004902759 0.0987274 -0.0631192 0.48442966 0.18792674 -0.21058631 -0.23581173 -0.0757176
-0.0047154757 0.29848638 -0.023337707 -0.880797 -0.23073445 0.2726674
00000000: 8e0a 743e 8024 89bc 3e27 2fbe 77e8 023e
00000010: b8c6 89be ac88 ba3d ab26 a1be c130 013f
00000020: ecdd 263e cd56 c0be 90bd 5d3f 47c9 e23e
00000030: 2334 903e 9061 18bf 77c3 b73e d11c 7a3e
00000040: 53a7 a03b 9731 ca3d a444 81bd 2a07 f83e
00000050: de6f 403e f0a3 57be a178 71be d411 9bbd
00000060: 4784 9abb 35d3 983e b82e bfbc ea7b 61bf
00000070: a745 6cbe 109b 8b3e
